w_m/model.pt (torch, 37471 bytes, 6 tensors)

weight f4 [10, 1, 5, 5]
0	0x3e85fbea	0.26168758
1	0x3db04603	0.08607104
2	0xbe6290d0	-0.22125554
3	0xbe07d7e9	-0.13265957
4	0xbbd54202	-0.006508113
5	0xbe2168fc	-0.15762705
6	0xbf11f78d	-0.5701836
7	0xbea0e742	-0.31426436
8	0xbce7f582	-0.02831531
9	0xbd98c493	-0.074593686
10	0x3c95a32f	0.018266289
11	0xbdb13623	-0.08652904
12	0x3e85f62c	0.26164377
13	0x3dd39be3	0.103324674
14	0x3da65a55	0.08122698
15	0x3e29a8de	0.16568324
16	0x3d1b9295	0.03798159
17	0x3e69ced9	0.22832812
18	0xbc382deb	-0.011241416
19	0x3ba61382	0.0050682435
20	0x3d9c5625	0.07633618
21	0x3e1e355b	0.15450041
22	0x3de1b352	0.11020531
23	0xbe052e5f	-0.1300597
24	0x3d1bd32a	0.03804318
25	0x3e4e1141	0.2012377
26	0x3e67a4d0	0.22621465
27	0xbe481b33	-0.19541626
28	0x3d3aa1ee	0.045564584
29	0x3dc3f213	0.09567656
30	0xbe39cf10	-0.18145394
31	0xbe861c32	-0.26193386
32	0xbeb3ba6a	-0.3510316
33	0xbe19c49b	-0.15016405
34	0x3db28125	0.087160386
35	0x3d962368	0.07330972
36	0x3ed1ab19	0.4095085
37	0x3f0622ac	0.52396655
38	0x3e0163d0	0.12635732
39	0x3e91241b	0.2834786
40	0xbe647ad0	-0.22312474
41	0xbdfc37f8	-0.12315363
42	0x3c8749ad	0.016514624
43	0x3e218dc2	0.15776733
44	0x3dd8c8bb	0.10585161
45	0xbef406e1	-0.47661498
46	0xbebd14e0	-0.3692999
47	0xbf12cc5b	-0.5734307
48	0xbf0d9c5b	-0.55316705
49	0xbf1da3ef	-0.6157827
50	0xbd500288	-0.050783664
51	0xbd39347b	-0.045216065
52	0xbe3b65c2	-0.18300536
53	0xbf2e2b88	-0.68035173
54	0xbea014bb	-0.31265816
55	0x3d69d4fe	0.05708789
56	0x3e22cfae	0.15899536
57	0x3e13681f	0.14395188
58	0xbdfc9c46	-0.12334494
59	0xbf01014c	-0.50392604
60	0x3bdd4ac3	0.006753297
61	0x3ed2ec0b	0.41195711
62	0x3f4f595e	0.8099574
63	0x3ec36c61	0.38168624
64	0xbe7c722c	-0.24652928
65	0xbe72a89c	-0.23697132
66	0xbea6e981	-0.32600024
67	0x3e763b18	0.2404598
68	0x3e6c3a8b	0.23069207
69	0xbc0e4e46	-0.008685654
70	0xbe7ca9ba	-0.2467412
71	0xbe9142d1	-0.2837129
72	0xbda29ca8	-0.07940036
73	0x3e4e4c6f	0.20146345
74	0x3df75fd0	0.12078822
75	0x3c9a5737	0.018840415
76	0xbe4b7830	-0.19870067
77	0xbe13bc77	-0.14427362
78	0x3e2fc985	0.17166717
79	0x3ea80b79	0.32821253
80	0x3dfe7736	0.124250814
81	0x3f0086c9	0.50205666
82	0x3e0a8133	0.13525848
83	0x3e0b5a49	0.1360866
84	0x3e05021b	0.12989084
85	0xbe725397	-0.236647
86	0x3eba366a	0.3636964
87	0x3e642006	0.22277841
88	0x3bc32622	0.0059554735
89	0x3e76fdda	0.24120274
90	0xbef8de80	-0.48607254
91	0xbe953e40	-0.29149055
92	0x3dc4dae8	0.096120656
93	0xbea25bc9	-0.31710652
94	0xbdc79d96	-0.09746854
95	0xbe061d55	-0.13097127
96	0xbec888e3	-0.39166936
97	0xbee7808b	-0.45215258
98	0xbe4ee2b9	-0.20203675
99	0xbca952ea	-0.02066942
100	0x3ec1f713	0.37883815
101	0xbd39915d	-0.045304645
102	0xbebf0c59	-0.37314108
103	0xbf203308	-0.6257787
104	0x3c9f2151	0.019425066
105	0xbdc450c0	-0.09585714
106	0xbef9e777	-0.48809406
107	0xbf00d8f0	-0.5033102
108	0xbd33cf3a	-0.0438988
109	0x3f2cca7f	0.67496485
110	0xbec3bbd5	-0.38229242
111	0xbe99e279	-0.30055597
112	0xbe861ed8	-0.26195407
113	0x3ebe0e61	0.37120345
114	0x3eb0e5d7	0.34550354
115	0xbe884948	-0.2661841
116	0xbcccf152	-0.025017414
117	0xbd8bcfcd	-0.06826744
118	0xbd96a709	-0.07356078
119	0x3e4a76d9	0.197719
120	0xbd4256d7	-0.0474461
121	0xbe24e667	-0.16103517
122	0xbd8e7675	-0.06956188
123	0xbe20bc76	-0.15696892
124	0x3e25af51	0.16180159
125	0x3f4368ea	0.7633196
126	0x3f12fcd0	0.5741701
127	0x3dc31e7d	0.095272996
128	0xbe921e6b	-0.28538832
129	0xbe9d482f	-0.30719134
130	0x3e60a9e1	0.21939804
131	0xbe2d76dc	-0.16939873
132	0xbedaa804	-0.4270631
133	0xbe97a28b	-0.29616198
134	0x3c676cd8	0.0141250715
135	0xbe87b461	-0.26504806
136	0xbe5f7d80	-0.21825218
137	0xbe1d840b	-0.15382402
138	0xbd56cb73	-0.052440118
139	0xbd689736	-0.05678483
140	0xbdde6ab1	-0.108601935
141	0xbe8a3c62	-0.26999193
142	0xbdaaae90	-0.083340764
143	0xbd9c2ab4	-0.076253325
144	0xbd46ad57	-0.048505154
145	0xbe5ebc27	-0.21751462
146	0xbdb930b9	-0.09042496
147	0xbdfa861b	-0.1223261
148	0x3e08605a	0.13318005
149	0xbc9214a2	-0.017832104
150	0x3e04a824	0.12954766
151	0x3df50b3c	0.119650334
152	0x3d0a3c08	0.033748657
153	0x3e535ec0	0.20641613
154	0x3b3c50ed	0.002873476
155	0x3c46b875	0.012128939
156	0xbe4e261e	-0.20131728
157	0xbe3a4f9d	-0.18194433
158	0xbee3a7db	-0.44464
159	0xbf017e16	-0.50583017
160	0xbe92764e	-0.28605884
161	0xbe8ef9c1	-0.27924922
162	0xbec54d7a	-0.38535672
163	0xbe277a3a	-0.1635522
164	0xbe12a93c	-0.1432237
165	0xbddaf7d9	-0.106918044
166	0xbe28105d	-0.16412492
167	0x3ca38d87	0.019964946
168	0x3e1f752d	0.15572043
169	0x3e567e65	0.20946653
170	0x3d978e3e	0.074001774
171	0x3e597c55	0.21238835
172	0x3da9d19b	0.08291932
173	0x3ec18f2c	0.37804544
174	0x3e511b8f	0.20420669
175	0xbea7e725	-0.32793537
176	0xbe090e12	-0.13384274
177	0xbdc65312	-0.09683813
178	0x3caa5429	0.020792084
179	0x3ebdcef7	0.37071964
180	0xbe5559c9	-0.20835032
181	0xbe495e83	-0.1966496
182	0xbe61428b	-0.2199804
183	0xbe86897e	-0.26276773
184	0xbe635de9	-0.22203793
185	0xbbc8e354	-0.0061306152
186	0x3d28b167	0.04118481
187	0xbe777b5a	-0.24168149
188	0xbeaab92c	-0.333444
189	0xbe84509d	-0.25842753
190	0x3d520d1f	0.051282045
191	0x3d5f2a5a	0.05448375
192	0x3ced8a7b	0.028996697
193	0x3d2b0223	0.041750085
194	0xbe04e429	-0.12977661
195	0x3d837afb	0.06419941
196	0xbe202045	-0.1563731
197	0x3e30dc8f	0.17271636
198	0x3e081081	0.13287546
199	0x3d9b01d1	0.07568706
200	0x3e275182	0.16339687
201	0xbd9666ea	-0.07343848
202	0xbed20342	-0.4101811
203	0x3e8387a1	0.25689414
204	0xbe2efc9c	-0.1708855
205	0xbdcc7f18	-0.09985179
206	0xbf36ab4d	-0.71355134
207	0xbc2da089	-0.010597357
208	0x3e646c00	0.22306824
209	0x3e99f7f1	0.30071977
210	0x3cbcf8f4	0.023067929
211	0xbce249b5	-0.027623037
212	0x3f414d0c	0.7550819
213	0x3eacb992	0.3373533
214	0xbd036458	-0.032078117
215	0x3e4eaa40	0.20182133
216	0x3f060cb2	0.5236312
217	0xbe5253b2	-0.2053974
218	0xbed6d44c	-0.41958845
219	0xbf015519	-0.50520474
220	0xbdd0a4fc	-0.10187718
221	0xbe9fd10d	-0.3121418
222	0xbe8f59bf	-0.27998158
223	0x3e4ed934	0.20200044
224	0x3e125ec8	0.14293969
225	0x3df1f70f	0.11814701
226	0xbe35e1e2	-0.17761949
227	0x3eb07874	0.34466898
228	0x3e97056a	0.29496318
229	0xbd0103c1	-0.03149772
230	0x3c60ba5e	0.013716308
231	0xbe5bf8cb	-0.21481626
232	0xbdbae935	-0.09126512
233	0x3d91cf56	0.07119624
234	0x3ddb344c	0.10703334
235	0xbe351817	-0.17684971
236	0xbe9525a3	-0.29130277
237	0xbe1853d9	-0.14875735
238	0x3ea68dfc	0.325302
239	0x3e3d32d8	0.18476427
240	0xbe5fb633	-0.21846847
241	0xbea2a415	-0.3176581
242	0x3ddaf1ab	0.10690626
243	0x3f2725a1	0.6529179
244	0xbe13e973	-0.14444523
245	0x3cbce1f0	0.023056954
246	0xbe0ea4df	-0.13930081
247	0xbb90e5f3	-0.0044219433
248	0x3e9d8187	0.30762884
249	0xbeb22581	-0.34794238

bias f4 [10]
0	0xbec7cb40	-0.39022255
1	0xbec658dd	-0.38739672
2	0xbf0b1b83	-0.54338855
3	0xbebc1acb	-0.3673919
4	0xbf51169d	-0.8167513
5	0xbf07482c	-0.528445
6	0xbf1a4063	-0.60254496
7	0xbe86e941	-0.26349834
8	0xbefdba37	-0.49556133
9	0xbf3f0fbb	-0.7463338

weight f4 [20, 10, 5, 5]
0	0x3dcd3d21	0.10021425
1	0xbe08c009	-0.13354506
2	0xbdd75aa2	-0.10515334
3	0xbe5dfb64	-0.21677929
4	0xbe634f2d	-0.22198172
5	0xbd135fb3	-0.035979938
6	0xbd8d15ed	-0.06888948
7	0xbc792153	-0.015205699
8	0xbe6943a9	-0.22779717
9	0xbddb68ca	-0.10713346
10	0xbd56be60	-0.05242765
11	0x3b8a5d7a	0.004222569
12	0xbdeb7f73	-0.114989184
13	0xbe1e71f7	-0.15473162
14	0xbdd1749a	-0.10227318
15	0x3db72376	0.089423105
16	0xbdf7c1ff	-0.12097549
17	0xbda93f11	-0.08263982
18	0x3db73084	0.089448005
19	0xbcadd26c	-0.021218501
20	0x3e0a6551	0.13515212
21	0x3c0ca48f	0.008584156
22	0xba42e431	-0.0007434516
23	0x3dd5febb	0.104489766
24	0x3e0f9690	0.14022279
25	0xbcbefb05	-0.023313055
26	0x3cd2dbd3	0.025739586
27	0x3c5e7353	0.0135773
28	0xbd9f6d8a	-0.07784565
29	0xbdcb954b	-0.09940585
30	0xbe2ddb97	-0.16978298
31	0xbe130151	-0.14355971
32	0xbb737938	-0.003715111
33	0xbd9b8564	-0.075938016
34	0x3da9b925	0.08287267
35	0xbe637aea	-0.22214857
36	0xbe4ce4f1	-0.20009209
37	0xbd643e41	-0.055723432
38	0xbd34d6a7	-0.04415002
39	0xbc8632da	-0.01638167
40	0xbe6b1db4	-0.2296055
41	0xbe7ccf28	-0.24688399
42	0xbd8fa8a2	-0.07014586
43	0xbdb246d9	-0.08704919
44	0xbdff2fac	-0.124602646
45	0xbd46fbf3	-0.04858012
46	0xbdcd0982	-0.10011579
47	0xbd499617	-0.049215402
48	0xbe00803c	-0.12548918
49	0xbd1d6ce9	-0.038433943
50	0xbd534050	-0.051575005
51	0xbe9526ad	-0.2913107
52	0xbe341a05	-0.1758805
53	0xbe93c62d	-0.28862134
54	0x3dd66282	0.104680076
55	0x3da41e90	0.08013642
56	0x3e7f6c79	0.24943723
57	0x3d502e67	0.050825503
58	0xbe1ff90a	-0.15622345
59	0x3e107d14	0.14110214
60	0x3e29e5da	0.16591588
61	0x3e4bb851	0.1989453
62	0x3da02c70	0.07820976
63	0xbe39eac1	-0.18155958
64	0x3c2c8ef7	0.010532132
65	0xbd4b6c06	-0.049663566
66	0x3d9118f3	0.07084837
67	0x3cfcbb7f	0.030851124
68	0xbe752046	-0.23938093
69	0xbc0ba9b0	-0.008524343
70	0x3d9315e1	0.071819074
71	0x3c308f2a	0.0107763205
72	0x3e30cdf9	0.17266072
73	0x3d75d31a	0.060015775
74	0x3de082c0	0.109624386
75	0xbdfe855b	-0.12427779
76	0xbd0e2342	-0.034701593
77	0xbc195b31	-0.009360121
78	0xbd8dabc8	-0.0691753
79	0xbdcc2ccb	-0.09969481
80	0xbe018d32	-0.12651518
81	0xbe28f5a4	-0.16499954
82	0xbe6dba80	-0.23215675
83	0xbe3ef54e	-0.18648264
84	0xbd34fb4a	-0.04418496
85	0xbc99170f	-0.018687753
86	0xbe42043f	-0.18946932
87	0xbe80169b	-0.25017247
88	0xbe8bf376	-0.27334183
89	0xbcdbe1e0	-0.026841104
90	0xbd84ad45	-0.06478361
91	0xbe0617bb	-0.1309499
92	0xbece1193	-0.40247783
93	0xbeb99399	-0.3624542
94	0xbe898e4f	-0.26866385
95	0x3e1ab241	0.15107061
96	0xbc5b6480	-0.01339066
97	0xbe7fc9e4	-0.24979359
98	0xbdeeb670	-0.11655891
99	0xbe8a4982	-0.27009207
100	0xbdd02a46	-0.10164313
101	0xbe9a83a1	-0.3017855
102	0xbe515d49	-0.20445742
103	0x3d0fdcb9	0.035122607
104	0x3dd1dc71	0.10247124
105	0xbe1dad9c	-0.15398258
106	0xbe46c87f	-0.1941242
107	0xbe83cb32	-0.25740963
108	0x3d581352	0.0527528
109	0x3e494e15	0.19658692
110	0x3e8dffe8	0.27734303
111	0x3cd585c2	0.026064757
112	0xbe50bcc2	-0.20384505
113	0x3e2c2b84	0.16813475
114	0x3d827193	0.06369319
115	0x3e5af00a	0.2138063
116	0x3e7b1312	0.24518993
117	0xbda9b94a	-0.08287294
118	0x3e1b568e	0.15169737
119	0xbc0eb4b8	-0.008710079
120	0x3db2f726	0.08738546
121	0x3e32afe1	0.17449905
122	0xbca14d45	-0.019690165
123	0xbc62e731	-0.013849066
124	0x3e159164	0.14606243
125	0x3e0ec0bd	0.13940711
126	0x3e2d9613	0.1695178
127	0x3d82ff40	0.06396341
128	0x3d8f0b45	0.06984571
129	0xbdeb13ec	-0.11478409
130	0x3c1b4236	0.009476235
131	0xbcdf5608	-0.027262703
132	0xbcc41606	-0.023936283
133	0xbde84767	-0.11341744
134	0xbd078f65	-0.033095736
135	0x3d3dacd1	0.04630739
136	0xbdee368d	-0.116314985
137	0xbd2346b8	-0.039862365
138	0xbd442ae7	-0.047892477
139	0xbce91e11	-0.02845672
140	0xbcd15fe0	-0.025558412
141	0xbe1a2bbe	-0.15055749
142	0xbd82a51a	-0.06379147
143	0xbccf7ac3	-0.025327092
144	0xbd843cd1	-0.06456912
145	0xbd63cff5	-0.055618245
146	0xbd7d287e	-0.061806194
147	0xbdcfbf05	-0.10143856
148	0xbe7455c9	-0.2386085
149	0xbde42cf7	-0.11141389
150	0xbd1ae281	-0.037813667
151	0xbd57a46e	-0.052647047
152	0xbe3a0910	-0.1816752
153	0xbe58af13	-0.21160536
154	0xbd8c0270	-0.068364024
155	0xbd89fb6b	-0.06737407
156	0xbd87abc6	-0.0662456
157	0xbe3c3701	-0.18380357
158	0xbeaaa016	-0.3332526
159	0xbdf3ab8c	-0.11897954
160	0xbe37a0a3	-0.17932372
161	0xbd11b3eb	-0.035571974
162	0xbe2a3270	-0.16620803
163	0xbe09c9d6	-0.134559
164	0xbd6b5f99	-0.057464216
165	0xbd912501	-0.07087136
166	0xbdf46649	-0.11933572
167	0xbe1045fe	-0.140892
168	0xbb3d19bc	-0.002885445
169	0x3cdeea08	0.027211204
170	0xbd4a5742	-0.04939962
171	0xbd57e685	-0.052710075
172	0x3dcf2729	0.10114891
173	0x3e7cfb37	0.24705206
174	0x3ecfdd6d	0.40598622
175	0x3d738b6e	0.059459142
176	0x3dda0375	0.106451906
177	0x3cd63bd6	0.026151579
178	0x3cf86e55	0.030326048
179	0xbca54e36	-0.020178895
180	0x3bd38792	0.00645537
181	0x3d446e07	0.047956493
182	0x3d99ef1d	0.0751631
183	0x3ceebd83	0.0291431
184	0x3da03954	0.078234345
185	0xbd031b77	-0.032008614
186	0xbcccb3da	-0.024988104
187	0x3cf94660	0.030429065
188	0x3ddb7df1	0.10717381
189	0x3dfe716a	0.12423976
190	0xbdd7bfbe	-0.10534619
191	0xbe3cfe51	-0.18456389
192	0xbd90183c	-0.07035872
193	0x3e01d701	0.12679674
194	0x3ca95faf	0.020675508
195	0xbc95119b	-0.018196872
196	0xbddac576	-0.10682194
197	0xbcbe9b70	-0.023267478
198	0x3d39cea2	0.045363076
199	0x3d8f52ee	0.069982395
200	0x3e0f3ef8	0.13988864
201	0xbdb0e43f	-0.086372845
202	0xbe35aee4	-0.17742497
203	0xbe249862	-0.16073754
204	0x3c175685	0.009236936
205	0x3c0a7a6f	0.008452042
206	0xbdc99715	-0.0984327
207	0xbdef31c1	-0.11679412
208	0xbdee4b01	-0.116353996
209	0xbdd2b72c	-0.102888435
210	0x3d8090b0	0.06277597
211	0x3d8cc2d6	0.068730995
212	0xbe4fa33a	-0.2027711
213	0xbdeda95f	-0.116045706
214	0xbc8b1905	-0.016979704
215	0x3c0faf82	0.008769872
216	0xbd46573f	-0.048423048
217	0xbe51fc4c	-0.205064
218	0xbe0b31f4	-0.13593274
219	0xbe51abf3	-0.2047575
220	0x3e662879	0.22476377
221	0x3e1d729b	0.1537575
222	0xbe2f1f6c	-0.1710183
223	0x3d9cca33	0.07655754
224	0xbcdc00c6	-0.026855838
225	0xbe4ee681	-0.20205118
226	0xbe9ca783	-0.3059655
227	0xbe94f815	-0.29095522
228	0xbd1c3dca	-0.038144864
229	0x3e09e4d0	0.13466191
230	0xbc8cd42c	-0.017191015
231	0xbda94632	-0.08265342
232	0xbe8c0aa6	-0.27351874
233	0xbd6845cc	-0.05670719
234	0x3e61569c	0.22005695
235	0x3de20303	0.11035731
236	0x3e0e9553	0.1392415
237	0xbe0db2c8	-0.13837731
238	0x3d1033c7	0.03520563
239	0x3bcc7ac4	0.0062402207
240	0x3e791eff	0.2432823
241	0x3eaec76b	0.3413652
242	0x3c694aed	0.014239055
243	0xbc827dc5	-0.015929112
244	0xbd875a88	-0.06609064
245	0x3e0263a2	0.1273332
246	0x3e43925d	0.19098802
247	0x3d89c275	0.06726543
248	0x389d66e8	7.505511e-05
249	0xbd869dea	-0.065730885
250	0xbdd16c31	-0.10225714
251	0xbd3ab7f3	-0.045585584
252	0xbdfb13a8	-0.122596085
253	0xbe68cdf8	-0.22734821
254	0xbdbdcbfb	-0.09267422
255	0xbdca5dde	-0.09881185

bias f4 [20]
0	0x3c9d804e	0.01922622
1	0x3cac553e	0.02103674
2	0x3d049e41	0.032377485
3	0xbc02ffa3	-0.007995519
4	0xbd3d0c1f	-0.046154138
5	0xbdb1f26f	-0.08688819
6	0x3d9792e4	0.07401064
7	0x3c7385b0	0.014863417
8	0xbdd3ff0b	-0.1035138
9	0xbded513f	-0.11587762
10	0xbde57bcf	-0.11205255
11	0xbd8c20c4	-0.06842187
12	0xbdf4da5d	-0.11955712
13	0xbd3acbea	-0.045604624
14	0xbc1c2e8b	-0.009532581
15	0xbe173576	-0.14766487
16	0xbc5e9ac7	-0.0135867065
17	0x3d8be505	0.068307914
18	0xbe12e650	-0.1434567
19	0xba97c7dc	-0.0011579948

weight f4 [10, 320]
0	0x3ba2c73d	0.0049675987
1	0xbdbe397e	-0.092883095
2	0xbdfe4693	-0.12415805
3	0x3e141682	0.14461711
4	0xbe26589c	-0.1624474
5	0xbdfcb1ca	-0.12338598
6	0x3c5e6469	0.013573744
7	0x3d6f730f	0.058459338
8	0xba84e9ec	-0.0010140515
9	0x3ed6b63b	0.41935906
10	0x3df5ad52	0.11995949
11	0xbdd31617	-0.10306948
12	0x3e1e74da	0.15474263
13	0x3e894d66	0.26816863
14	0xbda15ee7	-0.07879429
15	0xbe5ac060	-0.21362448
16	0x3de2a11b	0.11065885
17	0x3d829f2d	0.063780166
18	0xbcb79cbd	-0.022413606
19	0xbe1e161d	-0.15438123
20	0x3e37e25c	0.17957443
21	0xbe842b7b	-0.25814423
22	0xbe666f4e	-0.22503397
23	0xbe129681	-0.14315225
24	0xbdfba6d5	-0.1228768
25	0x3df973f0	0.121803164
26	0x3d4b8205	0.049684543
27	0xbe73a402	-0.23793033
28	0xbe07feb9	-0.13280763
29	0x3dcd6f53	0.10030999
30	0x3e5dc76d	0.21658106
31	0xbdcd4dd9	-0.10024614
32	0x3d5042b5	0.050844867
33	0xbe5bbb95	-0.21458276
34	0xbe135d3a	-0.14391032
35	0x3ea3b34d	0.31972733
36	0xbcc3cdb9	-0.023901807
37	0x3d9c835a	0.07642241
38	0x3d4e6b73	0.05039544
39	0xbcdfa4b3	-0.027300214
40	0xbd2d1f01	-0.042265896
41	0xbe1295a2	-0.14314893
42	0xbd30b4a1	-0.04314101
43	0xbdc9c7cf	-0.098525636
44	0xbdd70fb3	-0.10501041
45	0xbe4c42e9	-0.19947399
46	0x3dab873a	0.08375402
47	0x3d2e187e	0.042503826
48	0xbd0a2666	-0.033728026
49	0xbc40958a	-0.011754403
50	0x39be2556	0.00036267441
51	0xbd32b0b5	-0.043625552
52	0x3c8eb871	0.017421933
53	0x3db3338c	0.08750066
54	0x3d05753e	0.032582514
55	0x3c712475	0.014718165
56	0x3da0e702	0.07856561
57	0x3cac918d	0.021065498
58	0xbd8a9c7a	-0.06768127
59	0x3cce8140	0.025208116
60	0x3d9af7c9	0.075667925
61	0xbd9cdfcc	-0.07659873
62	0xbcac191f	-0.021008072
63	0x3d8e8f6e	0.06960951
64	0xbdb46b8f	-0.08809578
65	0xbd42073f	-0.04737019
66	0xbe253e77	-0.1613711
67	0x3e2e78c9	0.17038263
68	0xbe4bcf1d	-0.19903226
69	0xbe8bf93b	-0.27338585
70	0x3d873ea8	0.066037476
71	0x3dfa78a9	0.12230045
72	0x3d945f49	0.07244737
73	0xbe59ceeb	-0.21270339
74	0xbe74eb77	-0.23917948
75	0x3d1581a6	0.036500596
76	0x3e752c11	0.23942591
77	0x3ea7e638	0.3279283
78	0x3e6bde18	0.23033941
79	0xbe96360e	-0.29338115
80	0x3d071fb0	0.032989204
81	0x3cc4adab	0.024008593
82	0xbd0e5a6b	-0.034754198
83	0x3d92819c	0.07153627
84	0x3d1daadf	0.038493033
85	0xbc92b6bb	-0.017909398
86	0xbd242aa3	-0.040079724
87	0x3dca87e9	0.09889204
88	0x3da3c6ea	0.07996924
89	0xbd1a5954	-0.037682846
90	0x3b849d3a	0.004047063
91	0x3dabe73c	0.08393714
92	0x3da8108a	0.082062796
93	0x3ce045b9	0.027376996
94	0xbde13e3c	-0.109981984
95	0xbb7c68ed	-0.003851469
96	0xbd84e9f1	-0.06489933
97	0x3cedfa98	0.029050156
98	0xbe70d8e2	-0.23520234
99	0xbd146c44	-0.036236063
100	0xbdf66588	-0.12031084
101	0xbd642585	-0.055699844
102	0xbcf8247d	-0.030290836
103	0xbe6522c0	-0.22376537
104	0xbc8d23dc	-0.017229013
105	0x3de8d941	0.11369563
106	0xbee307fd	-0.44342032
107	0xbdc91b4c	-0.098196596
108	0xbdfa51f6	-0.12222664
109	0x3d38586f	0.04500621
110	0x3d37b82b	0.04485337
111	0x3ed11c75	0.40842023
112	0x3a8ccfc9	0.0010743077
113	0xbe615a06	-0.22006997
114	0xbdeb4bf7	-0.114890985
115	0x3df6d84f	0.12052976
116	0x3cb92ba6	0.022603821
117	0xbe182c19	-0.14860572
118	0xbd1ba9a6	-0.038003586
119	0x3eab73de	0.33486837
120	0xbd270963	-0.040780436
121	0xbd93d027	-0.07217436
122	0xbda16181	-0.078799255
123	0x3cf03cdc	0.029325895
124	0x3e90182a	0.28143436
125	0xbd8563d0	-0.06513178
126	0xbe39335d	-0.18086
127	0xbce08b82	-0.027410273
128	0xbd2f5be9	-0.04281226
129	0x3b48cdbe	0.003064021
130	0xbd2fbf87	-0.042907264
131	0x3d396aba	0.045267798
132	0xbd985ac9	-0.07439191
133	0xbc84536a	-0.016153056
134	0xbcb29a36	-0.02180205
135	0xbd9cb222	-0.07651164
136	0xbd31f74e	-0.04344874
137	0xbda081d3	-0.07837262
138	0xbd62c1cf	-0.05536061
139	0x3b98a080	0.004657805
140	0xbc6df14b	-0.014522861
141	0xbd30608c	-0.043060824
142	0x3d5747ad	0.05255859
143	0x3d8a89f9	0.067645974
144	0xbe5c5e67	-0.21520387
145	0x3c00c1b6	0.007858684
146	0x3e06109e	0.13092276
147	0x3e8e5991	0.2780271
148	0xbe814c1a	-0.25253373
149	0xbd8da702	-0.0691662
150	0x3de95eac	0.1139501
151	0xbdcab655	-0.09898058
152	0xbeb64a65	-0.35603634
153	0x3e1765b7	0.14784895
154	0x3e513588	0.20430577
155	0x3c68d8ca	0.014211843
156	0x3dde7d52	0.10863747
157	0x3d09a2c4	0.03360249
158	0x3e014a78	0.12626064
159	0xbdb1bc7a	-0.08678527
160	0xbc99e413	-0.018785512
161	0xbadb8cbd	-0.0016750317
162	0xbcd7b88f	-0.026333122
163	0x3d9d1903	0.07670786
164	0xbee20f48	-0.44152284
165	0x3d86ab89	0.065756865
166	0xbc606af3	-0.013697374
167	0xbd445513	-0.047932696
168	0xbed276e8	-0.41106343
169	0xbddcc82f	-0.107803695
170	0xbdd88c79	-0.10573668
171	0xbc1b03ad	-0.009461326
172	0xbdbba4fa	-0.09162326
173	0x3e79c12a	0.24390092
174	0x3e1d5dcc	0.15367812
175	0x3e3b590e	0.1829569
176	0xbd84e98d	-0.06489859
177	0xbdb2af05	-0.087247886
178	0xbd43d01f	-0.0478059
179	0xbc43eff6	-0.011959067
180	0xbd80c6a2	-0.06287886
181	0xbc67d7db	-0.014150585
182	0xbddf786b	-0.1091164
183	0xbdffa8cd	-0.12483368
184	0x3dd3d32f	0.103430144
185	0xbe234ebc	-0.15948004
186	0xbd37e0ef	-0.044892248
187	0xbe6dd956	-0.23227438
188	0x3e2bfd71	0.16795899
189	0x3ea70c15	0.32626405
190	0x3e895215	0.26820436
191	0xbde776ba	-0.11301942
192	0xbdaf8388	-0.085700095
193	0x3d7491e6	0.059709452
194	0x3b77a982	0.0037790244
195	0xbe13e75b	-0.14443724
196	0xbe4e3dde	-0.20140788
197	0xbe38fc0a	-0.18064895
198	0x3d830c1f	0.06398796
199	0xbe573f0d	-0.21020146
200	0xbef776c5	-0.483328
201	0x3e363116	0.17792162
202	0x3d62bbac	0.05535476
203	0xbe4e3ee5	-0.2014118
204	0xbe35ee15	-0.17766602
205	0x3dd076eb	0.10178932
206	0x3e20d05b	0.15704481
207	0x3e513a66	0.20432433
208	0x3cdad6b8	0.026713714
209	0x3e03c6f5	0.12868865
210	0xbd9da1f0	-0.07696903
211	0x3e478b61	0.19486763
212	0xbd05a2f1	-0.032626096
213	0xbdc1c9f0	-0.09462345
214	0x3e0cda6d	0.13755198
215	0xbeadd766	-0.33953398
216	0xbead96b2	-0.33904034
217	0x3e30e2db	0.17274038
218	0x3c8e0b15	0.017339269
219	0xbe88a62b	-0.26689276
220	0xbe10fff1	-0.14160134
221	0x3e348f0a	0.1763269
222	0x3e180ee9	0.14849438
223	0xbcc99025	-0.024604866
224	0xbc489242	-0.012241902
225	0xbe1cce69	-0.15313114
226	0xbda60d6b	-0.08108028
227	0xbdf4352b	-0.119242035
228	0x3e659700	0.22420883
229	0xbdda7631	-0.106670745
230	0xbe0ab803	-0.13546757
231	0xbc25e1a0	-0.010124594
232	0x3e83cde9	0.25743034
233	0xbc108166	-0.0088199135
234	0x3e8f8c1d	0.28036585
235	0x3e4a4306	0.1975213
236	0xbdfabcd3	-0.122430466
237	0xbe12c6a9	-0.14333595
238	0x3dc8df43	0.09808209
239	0xbc878163	-0.016541189
240	0xbc8b1800	-0.016979218
241	0x3c95a887	0.018268837
242	0x3d88ccfc	0.06679723
243	0x3c9300c8	0.017944708
244	0xbd84f560	-0.06492114
245	0x3c08d833	0.008352327
246	0x3d1b1ea5	0.03787102
247	0xbdee1fce	-0.1162716
248	0xbe29d87d	-0.1658649
249	0x3d08db28	0.03341213
250	0xbd0e7597	-0.03478011
251	0xbe823d1b	-0.25437245
252	0x3bd65819	0.006541264
253	0x3e95c3c8	0.29250932
254	0x3e1265d1	0.14296652
255	0x3e414315	0.18873246

bias f4 [10]
0	0x3d089736	0.03334733
1	0x3e5652d6	0.20930037
2	0xbdd53fdb	-0.1041257
3	0xbd1e7175	-0.03868242
4	0x3c34fa77	0.011046044
5	0xbe6a004b	-0.22851674
6	0xbdd67a75	-0.104725756
7	0x3d87bb65	0.066275395
8	0x3ebf989a	0.37421113
9	0xbd9690f3	-0.073518656
